…
/home/flaitenberger/.local/lib/python3.9/site-packages/torchvision/models/_utils.py:223: UserWarning: Arguments other than a weight enum or `None` for 'weights' are deprecated since 0.13 and may be removed in the future. The current behavior is equivalent to passing `weights=VGG19_BN_Weights.IMAGENET1K_V1`. You can also use `weights=VGG19_BN_Weights.DEFAULT` to get the most up-to-date weights.
  warnings.warn(msg)
/home/flaitenberger/.local/lib/python3.9/site-packages/torch/nn/_reduction.py:42: UserWarning: size_average and reduce args will be deprecated, please use reduction='mean' instead.
  warnings.warn(warning.format(ret))
image scale  (800, 640)
GPU:  0
Loading dataset into memory...
Done!
2148 268
len 21
0 -------------------->>>> Sequential(
  (0): Conv2d(3, 64, kernel_size=(3, 3), stride=(1, 1), padding=(1, 1))
  (1): BatchNorm2d(64, eps=1e-05, momentum=0.1, affine=True, track_running_stats=True)
  (2): ReLU(inplace=True)
  (3): Conv2d(64, 64, kernel_size=(3, 3), stride=(1, 1), padding=(1, 1))
  (4): BatchNorm2d(64, eps=1e-05, momentum=0.1, affine=True, track_running_stats=True)
  (5): ReLU(inplace=True)
  (6): MaxPool2d(kernel_size=2, stride=2, padding=0, dilation=1, ceil_mode=False)
  (7): Conv2d(64, 128, kernel_size=(3, 3), stride=(1, 1), padding=(1, 1))
  (8): BatchNorm2d(128, eps=1e-05, momentum=0.1, affine=True, track_running_stats=True)
  (9): ReLU(inplace=True)
  (10): Conv2d(128, 128, kernel_size=(3, 3), stride=(1, 1), padding=(1, 1))
  (11): BatchNorm2d(128, eps=1e-05, momentum=0.1, affine=True, track_running_stats=True)
  (12): ReLU(inplace=True)
  (13): MaxPool2d(kernel_size=2, stride=2, padding=0, dilation=1, ceil_mode=False)
)
1 -------------------->>>> Sequential(
  (0): Conv2d(128, 256, kernel_size=(3, 3), stride=(1, 1), padding=(1, 1))
  (1): BatchNorm2d(256, eps=1e-05, momentum=0.1, affine=True, track_running_stats=True)
  (2): ReLU(inplace=True)
  (3): Conv2d(256, 256, kernel_size=(3, 3), stride=(1, 1), padding=(1, 1))
  (4): BatchNorm2d(256, eps=1e-05, momentum=0.1, affine=True, track_running_stats=True)
  (5): ReLU(inplace=True)
  (6): Conv2d(256, 256, kernel_size=(3, 3), stride=(1, 1), padding=(1, 1))
  (7): BatchNorm2d(256, eps=1e-05, momentum=0.1, affine=True, track_running_stats=True)
  (8): ReLU(inplace=True)
  (9): Conv2d(256, 256, kernel_size=(3, 3), stride=(1, 1), padding=(1, 1))
  (10): BatchNorm2d(256, eps=1e-05, momentum=0.1, affine=True, track_running_stats=True)
  (11): ReLU(inplace=True)
  (12): MaxPool2d(kernel_size=2, stride=2, padding=0, dilation=1, ceil_mode=False)
)
2 -------------------->>>> Sequential(
  (0): Conv2d(256, 512, kernel_size=(3, 3), stride=(1, 1), padding=(1, 1))
  (1): BatchNorm2d(512, eps=1e-05, momentum=0.1, affine=True, track_running_stats=True)
  (2): ReLU(inplace=True)
  (3): Conv2d(512, 512, kernel_size=(3, 3), stride=(1, 1), padding=(1, 1))
  (4): BatchNorm2d(512, eps=1e-05, momentum=0.1, affine=True, track_running_stats=True)
  (5): ReLU(inplace=True)
  (6): Conv2d(512, 512, kernel_size=(3, 3), stride=(1, 1), padding=(1, 1))
  (7): BatchNorm2d(512, eps=1e-05, momentum=0.1, affine=True, track_running_stats=True)
  (8): ReLU(inplace=True)
  (9): Conv2d(512, 512, kernel_size=(3, 3), stride=(1, 1), padding=(1, 1))
  (10): BatchNorm2d(512, eps=1e-05, momentum=0.1, affine=True, track_running_stats=True)
  (11): ReLU(inplace=True)
  (12): MaxPool2d(kernel_size=2, stride=2, padding=0, dilation=1, ceil_mode=False)
)
3 -------------------->>>> Sequential(
  (0): Conv2d(512, 512, kernel_size=(3, 3), stride=(1, 1), padding=(1, 1))
  (1): BatchNorm2d(512, eps=1e-05, momentum=0.1, affine=True, track_running_stats=True)
  (2): ReLU(inplace=True)
  (3): Conv2d(512, 512, kernel_size=(3, 3), stride=(1, 1), padding=(1, 1))
  (4): BatchNorm2d(512, eps=1e-05, momentum=0.1, affine=True, track_running_stats=True)
  (5): ReLU(inplace=True)
  (6): Conv2d(512, 512, kernel_size=(3, 3), stride=(1, 1), padding=(1, 1))
  (7): BatchNorm2d(512, eps=1e-05, momentum=0.1, affine=True, track_running_stats=True)
  (8): ReLU(inplace=True)
  (9): Conv2d(512, 512, kernel_size=(3, 3), stride=(1, 1), padding=(1, 1))
  (10): BatchNorm2d(512, eps=1e-05, momentum=0.1, affine=True, track_running_stats=True)
  (11): ReLU(inplace=True)
  (12): MaxPool2d(kernel_size=2, stride=2, padding=0, dilation=1, ceil_mode=False)
)
4 -------------------->>>> ReLU(inplace=True)
5 -------------------->>>> Sequential(
  (0): Conv2d(512, 64, kernel_size=(1, 1), stride=(1, 1))
  (1): BatchNorm2d(64, eps=1e-05, momentum=0.1, affine=True, track_running_stats=False)
  (2): ReLU(inplace=True)
)
6 -------------------->>>> Sequential(
  (0): Conv2d(512, 64, kernel_size=(1, 1), stride=(1, 1))
  (1): BatchNorm2d(64, eps=1e-05, momentum=0.1, affine=True, track_running_stats=False)
  (2): ReLU(inplace=True)
)
7 -------------------->>>> Sequential(
  (0): Conv2d(256, 64, kernel_size=(1, 1), stride=(1, 1))
  (1): BatchNorm2d(64, eps=1e-05, momentum=0.1, affine=True, track_running_stats=False)
  (2): ReLU(inplace=True)
)
8 -------------------->>>> Sequential(
  (0): Conv2d(128, 64, kernel_size=(1, 1), stride=(1, 1))
  (1): BatchNorm2d(64, eps=1e-05, momentum=0.1, affine=True, track_running_stats=False)
  (2): ReLU(inplace=True)
)
9 -------------------->>>> AvgPool2d(kernel_size=8, stride=8, padding=0)
10 -------------------->>>> AvgPool2d(kernel_size=4, stride=4, padding=0)
11 -------------------->>>> AvgPool2d(kernel_size=2, stride=2, padding=0)
12 -------------------->>>> Sequential(
  (0): Linear(in_features=500, out_features=128, bias=False)
  (1): BatchNorm1d(1, eps=1e-05, momentum=0.1, affine=True, track_running_stats=False)
  (2): Tanh()
  (3): Linear(in_features=128, out_features=132, bias=False)
  (4): Softmax(dim=0)
)
13 -------------------->>>> ModuleList(
  (0-131): 132 x Conv2d(256, 1, kernel_size=(1, 1), stride=(1, 1))
)
14 -------------------->>>> dilationInceptionModule(
  (temConv1): Sequential(
    (0): Conv2d(256, 64, kernel_size=(1, 1), stride=(1, 1))
    (1): BatchNorm2d(64, eps=1e-05, momentum=0.1, affine=True, track_running_stats=False)
    (2): ReLU(inplace=True)
  )
  (temConv2): Sequential(
    (0): Conv2d(256, 64, kernel_size=(3, 3), stride=(1, 1), padding=(1, 1))
    (1): BatchNorm2d(64, eps=1e-05, momentum=0.1, affine=True, track_running_stats=False)
    (2): ReLU(inplace=True)
  )
  (temConv3): Sequential(
    (0): Conv2d(256, 64, kernel_size=(3, 3), stride=(1, 1), padding=(2, 2), dilation=(2, 2))
    (1): BatchNorm2d(64, eps=1e-05, momentum=0.1, affine=True, track_running_stats=False)
    (2): ReLU(inplace=True)
  )
  (temConv4): Sequential(
    (0): Conv2d(256, 64, kernel_size=(3, 3), stride=(1, 1), padding=(4, 4), dilation=(4, 4))
    (1): BatchNorm2d(64, eps=1e-05, momentum=0.1, affine=True, track_running_stats=False)
    (2): ReLU(inplace=True)
  )
  (conv): Conv2d(4, 1, kernel_size=(1, 1), stride=(1, 1))
)
15 -------------------->>>> Conv2d(256, 132, kernel_size=(1, 1), stride=(1, 1))
16 -------------------->>>> Upsample(scale_factor=2.0, mode='bilinear')
17 -------------------->>>> Upsample(scale_factor=4.0, mode='bilinear')
18 -------------------->>>> Upsample(scale_factor=8.0, mode='bilinear')
19 -------------------->>>> Upsample(scale_factor=16.0, mode='bilinear')
…
